model4.pt (torch, 73028 bytes, 10 tensors)

conv1.weight f4 [2, 1, 5, 5]
000000 b8 1f 1c be ac 19 76 bd 7d f8 35 be d4 9b a8 bd
       -0.15246475 -0.060083076 -0.17770572 -0.08232847
000010 b5 ab bd bb 8c 41 7c 3c c2 8c e5 bd db 56 6d be
       -0.0057882913 0.015396487 -0.11208488 -0.23177664
000020 9c 50 0e 3d 6f 35 53 be 6f 6f e1 bd 5c 54 2f be
       0.034744844 -0.20625852 -0.110075824 -0.17122024
000030 1f f0 69 be ff ed 26 3d e4 4a 7e bd b9 1a 9f 3d
       -0.22845505 0.040754315 -0.06208314 0.07768769
000040 d2 58 40 3e 00 6f 67 be 76 6f 01 be 89 8b a8 3c
       0.18783882 -0.22600937 -0.12640175 0.020574348
000050 0c 16 d2 bd f0 0d 61 be 49 f1 0b be e0 49 f9 bd
       -0.10258111 -0.21977973 -0.13666262 -0.12172294
000060 59 dc cf 3c a5 5b af 3d ae 68 0c 3e 94 2d 3d 3e
       0.025373625 0.08562402 0.13711807 0.18474418
000070 51 e5 ba bd 6b 17 0e 3e bc 08 dc bd d5 f2 18 be
       -0.0912577 0.13876121 -0.107438534 -0.14936383
000080 09 a2 74 bd 9b f3 c4 3d 47 db d4 3c c3 0d 19 be
       -0.05972484 0.096167766 0.025983466 -0.14946656
000090 39 54 a7 3d dc f9 e3 3b f9 a9 01 3e b9 f7 1a be
       0.08170361 0.006957276 0.12662496 -0.15133561
0000a0 c1 12 0e be f1 6b 6e 3c 1a 6e a6 bd 47 90 8e bd
       -0.13874342 0.014552102 -0.08126469 -0.069611125
0000b0 90 2e c1 bd 97 ec 5a 3e a9 ff b0 3a 96 3b 6d be
       -0.09432709 0.21379314 0.0013503927 -0.23167261
0000c0 b9 0c 32 be 13 74 cb bd
       -0.17387666 -0.09934249

conv1.bias f4 [2]
000000 da 4a 56 3e 69 d9 12 bd
       0.20926991 -0.03585187

conv2.weight f4 [16, 2, 5, 5]
000000 53 48 86 be 7e 5c 58 bc c6 3c 21 3e 5b 7e 04 be
       -0.26227054 -0.013205646 0.1574584 -0.12938826
000010 ad b7 aa bd 9e 62 b4 3c 91 ce ea 3d 36 d8 8b 3d
       -0.083358146 0.02201968 0.11465181 0.06828348
000020 0c f6 61 be 69 9f 81 be bd 8a 17 3d 90 9e 42 ba
       -0.22066516 -0.25316933 0.036997546 -0.00074241403
000030 90 8e 10 3e d1 4a 0d bd 1c 86 75 be b4 6a db ba
       0.14116883 -0.03449518 -0.2397694 -0.0016740174
000040 17 8a db bd d7 c7 21 be e1 cc 43 bd 91 e8 b0 3d
       -0.10719698 -0.15798889 -0.04780281 0.086381085
000050 f1 55 3a 3c 66 b9 1b 3b 95 d2 a0 bc 3a a4 84 3d
       0.011373029 0.002376163 -0.019631663 0.06476636
000060 0f 7e 07 be 3a d2 b6 3c 62 4d 60 3c d9 09 03 be
       -0.13231681 0.02231704 0.0136903245 -0.12796725
000070 5c fc 08 be c2 53 16 3e e4 4f d1 3c d0 ad d9 3c
       -0.13377517 0.14680389 0.02555079 0.026572138
000080 17 ad c5 bd 55 dd f0 bc e0 06 66 bb 89 59 57 be
       -0.09652155 -0.029402414 -0.0035099313 -0.21030249
000090 20 f5 6c 3b 1f 63 80 bc 44 b1 a7 bd c2 84 c6 3d
       0.0036156848 -0.015672265 -0.081881076 0.0969329
0000a0 2b d8 8c bc cc 2e 81 bd 12 2d 15 be d2 52 97 bd
       -0.01719292 -0.06307754 -0.14567974 -0.073888436
0000b0 cc e2 17 3d 25 1c 7c 3d 7c 7b c7 3d 91 42 dd 3d
       0.037081525 0.06155028 0.0974035 0.10803712
0000c0 e8 8e 38 3a 61 6c d2 3c ee a3 17 3c cb 13 39 3d
       0.00070403377 0.025686445 0.0092553925 0.04518489
0000d0 a2 6a 59 be e5 3a 3d 3d 40 69 8f 3d eb a8 e4 3c
       -0.21232083 0.046198744 0.07002497 0.027912578
0000e0 aa 4f 0f be fa c6 62 bc 8c 28 04 3d 88 cd 92 bd
       -0.13995233 -0.013841385 0.03226523 -0.07168108
0000f0 01 a4 23 3e 4f c5 9e 3d e9 67 d9 bd d3 8a a9 bd
       0.15980531 0.077524774 -0.106155224 -0.08278432
000100 6b ae 24 3d 40 58 d1 bd 07 09 34 be ab b4 37 be
       0.0402054 -0.102219105 -0.17581569 -0.17940013
000110 9c 87 c3 bd 39 65 20 3e e8 6a 4f 3d 3a 1a 1d be
       -0.0954735 0.15663613 0.050639063 -0.15342036
000120 d9 c8 8e be 5b 1c 11 3b 00 fa d0 39 97 69 3f bd
       -0.2788761 0.0022142145 0.00039859116 -0.046731558
000130 fc 8b 8e 3d fc a9 3f 3d d0 26 ec bb 7d 49 86 3d
       0.06960294 0.04679297 -0.0072067752 0.065569855
000140 f4 d1 17 be 67 1e 46 be d2 fe 4d 3d 53 e3 9e 3d
       -0.14826185 -0.19347535 0.050291844 0.077582024
000150 bc 9e da bd 52 3c 51 bc c4 e4 63 be 2a 45 02 3d
       -0.106748074 -0.012770729 -0.22255236 0.03180424
000160 7d 6b 6c bd b2 68 3d be 95 51 1d be b3 35 2a 3d
       -0.057719696 -0.1849697 -0.15363152 0.041555118
000170 7f f2 f1 bd a6 3f 53 3c 1b 6e aa 3d a3 8a b7 bd
       -0.118138306 0.012893593 0.08321782 -0.0896199
000180 b8 7b 0d 3d 7e f3 e4 bc 9c fd a5 bd d8 71 19 be
       0.034541816 -0.027948137 -0.08105013 -0.14984834
000190 70 b3 5f be ed aa 72 be 1c f6 07 bd 64 19 26 bb
       -0.21845794 -0.23698016 -0.033193693 -0.0025344724
0001a0 73 1d 8d bd 56 4f 83 bd f2 13 12 be 77 96 06 bd
       -0.068903826 -0.064116165 -0.14265421 -0.03285834
0001b0 8d 27 f8 3d 2a b2 a4 3d 0c 4d 3e bd 9c ca 38 be
       0.12116919 0.080417946 -0.046460196 -0.1804604
0001c0 e5 3c a1 bd 89 1d ca bd 0a 78 16 bd 18 21 88 bc
       -0.07872943 -0.09868915 -0.036735572 -0.016617343
0001d0 8a b6 b3 bd 84 9e 2e be 4d d4 f9 bd d5 0d 2e be
       -0.08775051 -0.17052656 -0.12198696 -0.16997464
0001e0 5b e2 45 be 6c 7c f6 bd 31 2e 35 be ca 10 4e be
       -0.19324629 -0.1203545 -0.17693402 -0.20123592
0001f0 72 2a 9f ba 6e 1a 9c 3c d3 da 36 3d 57 2c 2c 3d
       -0.0012143387 0.019055571 0.04464228 0.042034473
000200 ae 94 fb bc cc 51 4c 3c d6 95 a4 bd 7a 7b ea bd
       -0.030710544 0.012470674 -0.080363914 -0.114493325
000210 b4 6c c4 bb 16 69 a3 3d 11 8d 81 3b 1b c9 0c 3e
       -0.0059944037 0.07979028 0.003953584 0.1374859
000220 ff 4d b3 3d b4 6b 53 be 5b 42 6b bd d1 8b a8 3d
       0.08755111 -0.20646554 -0.05743633 0.08229793
000230 d3 14 b4 bb 82 80 0b 3d 63 29 68 bd ad 0e 87 3d
       -0.0054956465 0.0340581 -0.056680094 0.06594596
000240 57 7b 4c bd 9d 79 1e 3d 44 b6 a7 bd a1 41 ec bc
       -0.049922314 0.0386902 -0.08189061 -0.028839888
000250 4c 81 d5 3d a2 ee 67 3d a1 b9 19 be 59 9a 5d 3d
       0.10425052 0.056624062 -0.15012218 0.054102276
000260 81 70 a3 bc 8d 6e 0e be 6f 00 f5 3d da 1e ec 3c
       -0.019951107 -0.1390936 0.11962973 0.028823305
000270 72 4c a6 3c de 4e e8 3d 5a 60 98 3c 8b 5c 3b be
       0.020300124 0.11343168 0.018600632 -0.18297021
000280 59 06 a6 3d 44 ec 1b 3e a1 68 b0 3d 82 c5 14 be
       0.081066795 0.15226847 0.086137064 -0.14528468
000290 76 a1 61 3c 6f 00 81 3c 9a 0b e7 3d d8 41 29 be
       0.013771405 0.015747277 0.1128151 -0.16529024
0002a0 d6 e1 01 bd b9 fc 04 3c 1b 73 3b 3d 52 69 60 bc
       -0.031709515 0.008116894 0.04576407 -0.013696985
0002b0 69 ca 2b 3d 5f 8d 92 be c3 24 f4 bd 39 94 74 bc
       0.04194108 -0.28623483 -0.11921074 -0.014927917
0002c0 82 2a 1f 3e a8 69 7c bc 09 17 5d 3d 48 db 15 3d
       0.15543559 -0.01540605 0.053977046 0.036586076
0002d0 1b 51 1b 3e d5 a9 cb bd 82 53 e9 bc 81 5c 4b be
       0.15167658 -0.09944502 -0.028482202 -0.19859506
0002e0 c1 7f 2d 3c 2d 05 94 bd 3e bf 84 ba dc ef 06 3d
       0.010589541 -0.0722755 -0.0010127795 0.03294359
0002f0 01 eb 1d bc 39 bc 1a 3d b9 c9 32 bc 6b c5 1d be
       -0.009638549 0.03777716 -0.010912352 -0.1540734
000300 15 0d 13 be 34 00 a2 3d 0f d9 f8 3b e9 77 77 bd
       -0.14360459 0.07910195 0.007594235 -0.06041709
000310 4b 7d 37 be 6f ff 93 3d 4e 3d 9b 3d 24 30 3e bd
       -0.17918889 0.072264545 0.07580052 -0.04643263
000320 7e 1d 6d 3d 37 e7 5c 3d 1e 27 04 3b 10 d1 98 bd
       0.057889454 0.05393144 0.0020164917 -0.074617505
000330 50 3a 3a be a2 b5 b8 3d fd 82 b4 bd 2a 31 b3 bd
       -0.18186307 0.09019019 -0.088140465 -0.08749612
000340 47 98 cd bd 97 23 51 be 10 ef 1d be 50 f1 91 3d
       -0.1003881 -0.20423733 -0.15423226 0.07126105
000350 98 fa 82 bd b7 53 e7 bc 53 77 d4 bd a8 12 77 3d
       -0.06395453 -0.02823816 -0.10374322 0.060320526
000360 4d 9d 9c bd 17 a4 5e bd 48 69 07 3e 5c 85 57 be
       -0.0764719 -0.054355707 0.13223755 -0.21046966
000370 8d e6 6b be 3c 4a 54 bd a6 95 ed 3d 09 54 4d 3d
       -0.23037167 -0.051828608 0.11600809 0.05012897
000380 8f 22 43 be 8a a8 85 bd 17 e2 89 3d 58 01 0e be
       -0.19056152 -0.06526287 0.06732576 -0.138677
000390 6d 81 97 3b 14 3e 9d bc 66 2d 2a bd df 95 d6 bc
       0.004623583 -0.01919464 -0.0415472 -0.026194511
0003a0 4a a1 01 3e 1a 9c 04 be 97 c5 25 be 55 7e c8 3b
       0.12659183 -0.12950173 -0.16188656 0.0061185756
0003b0 de ba 91 3d 14 22 c7 3b 9f eb e4 3d c5 17 4c bd
       0.0711572 0.0060770605 0.11177754 -0.049827356
0003c0 f0 02 b1 bd d6 a4 06 be dd 99 59 bd ce c0 b8 bd
       -0.086431384 -0.13148817 -0.05312525 -0.090211496
0003d0 86 41 67 ba 67 78 bb 3b ca 54 c0 3d cb 39 be bd
       -0.00088217144 0.00572114 0.09391172 -0.09288367
0003e0 ce 2f aa 3d d9 30 36 3e ed 49 1c 3d 46 7c b7 bd
       0.08309899 0.17792071 0.03815644 -0.0895925
0003f0 fe 5f c0 3d 44 66 c5 bd 43 0c 08 3e 85 73 96 bc
       0.09393309 -0.09638646 0.13285927 -0.01836563

conv2.bias f4 [16]
000000 61 b2 82 3d 56 87 a1 3d a2 16 b2 3d 2f d8 5c bc
       0.06381679 0.078871414 0.08695723 -0.013479277
000010 b0 a3 ae 3d 5d 80 81 3c c1 25 4a 3d 20 3e 80 ba
       0.08527315 0.015808279 0.04935241 -0.000978414
000020 1d f2 50 3d 8b 03 95 3d 47 d2 a2 bd 43 39 cf 3d
       0.051012147 0.072760664 -0.079502635 0.10118344
000030 4d a3 91 3d 48 7f b7 bd 73 ac 87 bc de 1c 14 be
       0.07111225 -0.08959824 -0.016561722 -0.14464137

fc1.weight f4 [64, 256]
000000 b3 25 45 bc 35 68 04 be 6c 7e f8 bc 15 ec ae 3d
       -0.012032914 -0.12930377 -0.03033372 0.08541123
000010 91 a7 4e bd 87 98 46 3c 76 36 9c bd fa 8b b5 bd
       -0.050452773 0.012121326 -0.07627575 -0.08864589
000020 0f b9 51 bc a1 3b 85 bc 5c 4c b3 bd 07 26 e8 bd
       -0.012800469 -0.016263785 -0.08754799 -0.11335378
000030 94 0f 65 bd 7f 18 b7 bd be 7e ed bc 27 9d 17 bd
       -0.05592306 -0.08940219 -0.0289911 -0.037015107
000040 17 b1 88 bd ab b7 66 bd d6 d9 79 bd 82 4c 8c 3c
       -0.06674402 -0.056327503 -0.06099876 0.017126326
000050 49 02 02 be c0 2d 75 bc 1b 23 88 bd a2 59 94 3c
       -0.12696184 -0.014964521 -0.06647321 0.018109147
000060 d9 c1 bb bd 23 fc a1 bd 43 29 62 bd 23 f6 ed bd
       -0.09167833 -0.079094194 -0.05521513 -0.116192125
000070 83 94 4b 3d 50 c0 5f bd bb 84 ae bc 24 ff 1c be
       0.04970218 -0.054626763 -0.021303525 -0.15331703
000080 5d 28 08 3d 56 e5 69 bd dd 53 ba 3c fb 53 97 bc
       0.03324162 -0.057103477 0.022745067 -0.018472662
000090 5c 08 82 bd 0c 93 81 3b 26 99 ec bc 4e 99 23 bd
       -0.06349251 0.003954297 -0.02888162 -0.039941125
0000a0 c8 cf 31 3d e5 dc 29 bc 85 aa d8 3c 04 f7 0c 3e
       0.043411046 -0.010367607 0.026448498 0.13766104
0000b0 50 57 df bc c6 4d ff bd f6 bf 8b bd 47 26 c0 3c
       -0.027263314 -0.12466006 -0.06823723 0.023455752
0000c0 a6 4e 8a bd dc 1c 50 bb 33 c2 ab bd ec d1 78 3d
       -0.06753282 -0.0031755483 -0.0838665 0.060747072
0000d0 c2 9e 9f bd e0 4a 97 bd 0f 69 0b be a3 49 43 bd
       -0.077939525 -0.07387328 -0.13614295 -0.047677647
0000e0 35 94 de bd 4c 41 2e 3b 74 82 ca bd 0e 35 cd bd
       -0.10868112 0.0026589213 -0.09888163 -0.10019885
0000f0 d6 a7 94 bd 10 60 09 bc 5b a5 95 b8 13 1b 97 bd
       -0.07258575 -0.0083847195 -7.1356735e-05 -0.07378211
000100 e3 d6 c3 bd cc 16 86 bd 86 02 ab bd c1 65 70 bd
       -0.09562471 -0.06547317 -0.08350091 -0.05869079
000110 0a f8 04 bd 8f 39 2d bd d8 c5 12 be 6a 7b 04 3d
       -0.03246311 -0.04229122 -0.14333284 0.03234426
000120 e5 39 b2 bd 6f b4 67 bc de 59 8d bc c3 6d 4c bd
       -0.08702449 -0.01414214 -0.017254766 -0.049909364
000130 66 11 a5 bd 4a 2c f9 3b 23 89 c3 3c 7f 21 c6 bd
       -0.08059959 0.0076041566 0.023869103 -0.096743576
000140 72 a2 53 bc 97 29 e5 bd 31 d5 37 3d 7d b5 be bd
       -0.012917148 -0.11189573 0.04488105 -0.0931196
000150 31 d8 53 bd 1b 49 be bd e0 be cd ba 7c df ae bd
       -0.051719848 -0.092912875 -0.0015697144 -0.0853872
000160 1f 97 e4 bc ab d1 d3 bd c3 97 c2 bd 98 53 33 bd
       -0.027904091 -0.10342725 -0.095016025 -0.043780893
000170 7f 62 ca bc 83 a0 0b be 92 f7 2b be 2a 70 0f bb
       -0.02470517 -0.13635449 -0.1679366 -0.0021886923
000180 5f b0 4c bd 3c 57 a0 3c df cb 7b bd 34 46 12 3d
       -0.049972888 0.019572847 -0.061473724 0.035711482
000190 bb 06 00 be 8b ea 12 3d 2b a0 e2 3b 7a 65 6f bd
       -0.12502567 0.03586821 0.006916066 -0.058446385
0001a0 f0 ef 29 bc 52 d1 65 3d 6f e7 0f bd 5b 7d d9 bd
       -0.010372147 0.056107827 -0.03513282 -0.10619613
0001b0 b3 8d 27 3d 77 4d ad bb 91 9f 9e 3b e1 f9 28 bd
       0.04090662 -0.0052887755 0.004840799 -0.041253928
0001c0 4d b4 9f 3c 6f ef 17 bd 04 ed bd 3c cc 65 2d 3c
       0.019495154 -0.037093576 0.023184307 0.010583352
0001d0 dc b5 25 bd 37 fd 8c 3d 2a 30 c1 bd e1 6c 3d 3d
       -0.040456638 0.068842344 -0.09433015 0.046246413
0001e0 14 67 8e bd db b1 7f 3c 18 6c de bc 68 8f 74 bd
       -0.06953254 0.015606369 -0.027151152 -0.059707075
0001f0 a6 67 9f bd 85 bb 0b 3c 05 32 49 3d 58 9c d5 3c
       -0.07783441 0.008528595 0.049119968 0.026075527
000200 12 3e cb bd 20 26 94 bd a7 d0 14 3d 00 ee ad 3c
       -0.09923948 -0.07233834 0.0363318 0.021231651
000210 89 3e a7 bc 57 32 0f bd 41 f2 bc 3c 9a 09 b1 bc
       -0.020415561 -0.034960117 0.023064734 -0.021611024
000220 d0 8d 24 bd 0c 4d 82 bc c2 52 ad bd ac 27 00 be
       -0.040174305 -0.01590588 -0.084630504 -0.12515134
000230 6f 99 93 bd 20 89 95 bd ad ed 79 bd 2c c3 a5 bd
       -0.072069995 -0.07301545 -0.06101768 -0.08093867
000240 0a c1 2a 3d 98 c9 dc bc cb c9 8a 3d 7c 4d c5 3c
       0.041688003 -0.026951596 0.0677677 0.024084799
000250 0a 85 6f bd f5 10 38 3d 69 10 60 3c 0e 7a be bd
       -0.058476485 0.044938046 0.0136757875 -0.09300624
000260 aa 96 3a 3b 5d a0 3a 3d 1e 4f c8 bd 19 d0 96 bd
       0.002847115 0.04556309 -0.097807154 -0.0736391
000270 3b 76 89 3d dc a2 c4 bc 8e c3 a2 bd d8 ec 7f 3c
       0.06712004 -0.024003439 -0.07947455 0.015620433
000280 d8 2c 54 bd b4 f7 aa 3c de 0a 14 bd 78 02 ba 3c
       -0.05180058 0.020870067 -0.036143176 0.022706255
000290 8a 08 08 bd 10 06 99 bc 4c ae ed bc 48 d4 05 3d
       -0.03321127 -0.018679649 -0.029013775 0.03267315
0002a0 d8 c1 6a bd 1a fc 1a 3d b0 f7 04 3d 4c 45 34 bd
       -0.05731377 0.03783808 0.032462776 -0.0440114
0002b0 ce dd 2c 3d 76 ee 3d 3d 0a 43 21 bd 60 11 bb 3b
       0.042203717 0.046369992 -0.039370574 0.0057088584
0002c0 0c 43 1b bd d4 73 48 3b ba f7 b3 3c 27 52 b9 3b
       -0.037905738 0.0030586617 0.021968711 0.0056555453
0002d0 75 27 e9 bd d7 30 3f 3c 08 55 ec 3c 50 02 db ba
       -0.11384479 0.011669359 0.02884914 -0.0016709063
0002e0 70 b1 11 be f5 d4 06 bd d0 9e c5 3c 63 97 98 bd
       -0.14227843 -0.032917935 0.02412358 -0.0745075
0002f0 e7 bb 4e bd b7 0d 97 bc 3c 86 eb 3c a3 e2 b7 bd
       -0.050472166 -0.018439157 0.028750531 -0.089787744
000300 51 32 94 bd 67 60 f1 3c eb ab b8 bc 7c ff bd bd
       -0.072361596 0.029464914 -0.022542914 -0.092772454
000310 62 52 5c 3d b4 9b f2 bb a1 bb 97 bd 36 be 17 3b
       0.053789504 -0.007403815 -0.07408834 0.0023154146
000320 d7 3b 2f bd d4 86 96 bc 4d e4 b3 3c 87 ef 71 bd
       -0.042781677 -0.018374838 0.021959448 -0.05906632
000330 4c 60 38 bd f1 bc 57 bd 42 7f a6 3d e0 a8 93 bd
       -0.04501371 -0.052670423 0.08129741 -0.07209945
000340 08 16 75 bc 2a 04 e2 bc e6 d3 70 bd ee 2e 4d bd
       -0.014958866 -0.027589876 -0.058795832 -0.050093584
000350 15 35 3d bd e9 e4 38 bd 80 4f 09 bc ea d2 a3 bd
       -0.0461932 -0.04514018 -0.008380771 -0.07999213
000360 4e 23 82 3c e1 ba c1 bb 64 a4 5c bc 47 17 b2 ba
       0.015885975 -0.0059121703 -0.013466928 -0.001358726
000370 ef 93 97 bd dd f1 18 bd 30 23 62 bd 78 fa 38 3d
       -0.07401263 -0.037340034 -0.05520934 0.04516074
000380 74 e0 bf bc ee b7 e3 bd d6 52 be bd 80 ef dc bd
       -0.023422457 -0.11119066 -0.092931435 -0.107878685
000390 24 73 5b bd ba 20 34 bd f3 8e c6 bd e8 96 26 bd
       -0.053576604 -0.043976523 -0.09695234 -0.04067126
0003a0 48 e5 7f bd 43 73 81 bd 73 55 8b bd 49 e6 71 bd
       -0.06247452 -0.063208126 -0.068034075 -0.059057508
0003b0 5d 45 4f bd fa ea 2e bd cc e3 85 bc 27 25 a1 3c
       -0.05060326 -0.04270456 -0.016343974 0.019671036
0003c0 24 30 a1 3c 60 dc e4 bc a0 fb 7d bb 38 53 10 3d
       0.019676276 -0.027937114 -0.0038754717 0.035235614
0003d0 98 11 48 bc 06 a8 76 3d 56 70 7d 3d dc e8 92 3c
       -0.012211226 0.060218833 0.06187471 0.017933302
0003e0 70 1d c4 bb 10 18 75 bc 8c 2b d1 3c 88 83 1a 3c
       -0.0059849545 -0.01495935 0.02553346 0.009430774
0003f0 28 12 58 bd e8 4c 5a bd 00 ad e4 39 f8 93 80 3c
       -0.05275169 -0.053296 0.00043616444 0.015695557

fc1.bias f4 [64]
000000 88 68 13 3e 86 df 15 3e 1d a5 71 bd f4 db 53 bd
       0.14395344 0.14636049 -0.058995355 -0.051723436
000010 df e4 65 bd 9c f7 4a bc 3d 20 5c 3d 18 f3 b1 3d
       -0.05612647 -0.012388136 0.053741682 0.086889446
000020 be 14 ef 3d fb bb 93 3d c0 0f fa 3d 81 b8 31 bd
       0.11673878 0.07213589 0.12210035 -0.043388847
000030 2b 03 5b 3d 82 1a 66 3d 7c b3 81 3b 2f 2f 01 3e
       0.053469818 0.056177624 0.003958164 0.12615655
000040 63 12 29 bd 47 1a 82 bd 76 d1 9f bc 84 53 e9 3c
       -0.0412773 -0.06352668 -0.019509058 0.028482206
000050 24 fd 83 bd 58 39 2f 3c 33 80 a6 3d 94 cc 9c 3d
       -0.06444767 0.010694824 0.08129921 0.07656208
000060 d5 ce 10 3a 17 5b 29 bd b9 b0 c5 3d 82 6a d4 3d
       0.00055239844 -0.041346636 0.09652848 0.10371877
000070 28 23 4b 3c 4e 77 27 bd 1a 22 8b bd 98 c4 b3 3d
       0.012398519 -0.040885262 -0.06793614 0.08777732
000080 c6 6a e2 bc f7 c0 dd 3d d8 c9 eb 3c 2a c2 99 3c
       -0.027638804 0.10827821 0.02878277 0.018769342
000090 34 b2 01 3d 24 03 12 bc c3 22 f1 3d 94 df de bc
       0.03166409 -0.008911882 0.117742084 -0.02720622
0000a0 a5 17 bf 3c ca 58 82 bd e5 da e3 3d 5f 70 2c bd
       0.023326704 -0.063645914 0.11125735 -0.042099353
0000b0 7c 72 53 bd ee c0 30 3d fd a0 07 3e d5 4e 39 3e
       -0.051622853 0.043152742 0.13245006 0.18096478
0000c0 00 89 93 3d a2 04 0e bd 15 0e 8e 3d f8 06 84 3d
       0.07203865 -0.034672387 0.0693628 0.06446642
0000d0 48 20 96 3d 7f ef 32 bd 62 3d 5b bd d9 0b 95 bd
       0.07330376 -0.043685433 -0.053525336 -0.072776504
0000e0 ed 22 9e 3d 94 56 8f 3d 96 b3 3d 3c 53 dd 88 3d
       0.07721505 0.06998935 0.011578461 0.06682839
0000f0 6b e8 b1 3d f2 6c 12 3d d8 c4 44 3e f7 b0 f8 3d
       0.08686908 0.03574843 0.19215715 0.12143128

fc2.weight f4 [2, 64]
000000 67 c4 ba bd d8 90 3f 3c 8d 33 c3 bd 58 69 80 bd
       -0.09119492 0.011692248 -0.09531317 -0.06270093
000010 9f dc bb 3d 2b f7 87 3c 4b bb 74 bc 74 5e be 3d
       0.091729395 0.016597351 -0.014937232 0.09295359
000020 2b 09 00 3e e8 07 9e 3d b8 1b 36 3d e1 cd c5 bd
       0.12503497 0.07716352 0.04446003 -0.09658409
000030 95 ed a1 bb 23 c1 bb bb 55 21 d0 bc 31 6b d3 bd
       -0.004941652 -0.005729811 -0.025406519 -0.103231795
000040 d7 c5 8a bd c2 05 ce 3d 0b 44 5d 3c 81 43 3a 3d
       -0.06776016 0.10059692 0.013504992 0.045474533
000050 73 e9 55 bd 89 59 d1 3b ef 56 f6 3d 7f 40 92 bd
       -0.052224588 0.0063888473 0.120283 -0.07141208
000060 a2 f7 02 bd ad c7 b0 bd 05 9d d6 3d f1 94 04 3e
       -0.031974442 -0.08631835 0.10479168 0.12947442
000070 2d 17 36 3d ce e4 bc 3d b2 bc 78 3a 07 35 f3 bd
       0.044455696 0.092233285 0.0009488567 -0.118753485
000080 20 54 83 bd af 53 a3 bc 59 75 ef 3d 33 8a 2b 3d
       -0.0641253 -0.019937364 0.11692304 0.041879844
000090 f0 3b 82 3d 14 a4 03 3e 63 e7 ad bc 8a a9 b9 bd
       0.063590884 0.1285556 -0.021228498 -0.0906554
0000a0 0f 26 90 bc e4 07 ea bd aa a1 98 3d 91 d4 7f bd
       -0.017596273 -0.11427286 0.0745271 -0.06245858
0000b0 7f f0 47 bb 06 e0 31 3c 3a 03 1a be 15 88 09 3e
       -0.0030508337 0.010856634 -0.15040293 0.13430817
0000c0 33 cf d0 3c 00 a5 1a bd 98 97 ad 3d 30 03 0f bd
       0.025489425 -0.037755013 0.0847618 -0.03491515
0000d0 32 ed bd 3c d8 51 9c bd 7b 27 48 3c fc b1 64 bd
       0.023184393 -0.07632798 0.012216444 -0.0558338
0000e0 a3 d2 9e 3d d2 ea 9c 3d 97 8b 15 3d 88 86 9b bd
       0.077550195 0.07661976 0.036510076 -0.07594019
0000f0 51 29 e3 3d f5 5e 8f 3d 96 40 00 3e d7 a5 3c be
       0.11091865 0.070005335 0.12524638 -0.18422638
000100 5f 5c 7f be 69 87 1f be 21 ce 26 3d 4e 11 77 3d
       -0.2493758 -0.15578999 0.040723924 0.060319237
000110 92 2a cf 3c 4b c0 9d bd 7d ce 47 3d c7 a2 b2 bd
       0.025288854 -0.077026926 0.048780907 -0.087224536
000120 6b c9 45 bd 24 7c 77 3c 15 f7 9d 3d 88 8d 85 bd
       -0.04828779 0.015105281 0.07713143 -0.065211356
000130 23 f7 99 3d 81 c6 64 3d c7 ae 95 3d 47 af 5d be
       0.07517841 0.05585337 0.07308727 -0.21648894
000140 b8 1c 19 bc 29 d8 e6 bd 4f 1c 83 bc 51 53 ef 3d
       -0.009345226 -0.11271698 -0.01600471 0.11685813
000150 e1 19 3f ba e1 e8 4a 3e c8 b3 00 3e 1b 9c 92 bd
       -0.0007289928 0.19815399 0.12568581 -0.07158681
000160 9f d5 85 3d 2b 8a bc 3d 87 97 15 3d 9c bd 85 3c
       0.065348856 0.09206041 0.03652146 0.016325764
000170 96 ab a3 3d fb dd d5 bd 46 16 17 bd 70 67 85 bd
       0.07991712 -0.1044273 -0.036886476 -0.0651387
000180 50 01 c1 3d c9 cf 43 be 2d 3d 42 bd 62 56 16 bd
       0.094240785 -0.19122232 -0.047421623 -0.036703475
000190 c8 3c 92 3b e4 5e 44 bd a7 9d 0b be fa 05 df 3c
       0.004462812 -0.047942057 -0.13634358 0.02722453
0001a0 54 1d d7 3d 6c 3f 0f 3d 2e 86 31 3d 68 28 bb 3d
       0.10503641 0.034972593 0.043340854 0.09138566
0001b0 39 53 42 3c 0c c6 c5 3d 10 10 0f be 14 38 32 bd
       0.011860662 0.09656915 -0.13970971 -0.04351051
0001c0 0a 0e 95 3d cd d5 03 3d f3 4a 1d bb b2 40 c4 3d
       0.07278068 0.03218632 -0.0024000972 0.09582652
0001d0 51 bd 7b 3d 1a f4 80 3d c2 a7 49 bd fc 71 4e 3b
       0.061459843 0.06296559 -0.049232252 0.0031501045
0001e0 b9 e2 f6 bb 9b de 8e bb eb 4e 53 3c 77 c2 ea bc
       -0.0075343517 -0.0043600327 0.0128972335 -0.028657181
0001f0 ce ee a7 3c 57 e0 d6 3c 7a 8a 48 bd 08 fc f5 bd
       0.020499613 0.02623002 -0.048960187 -0.12010962

fc2.bias f4 [2]
000000 54 5e 00 3e f5 46 28 3e
       0.12535983 0.16433318

qnn.weight f4 [4]
000000 96 57 c0 bf f9 a2 34 3e c7 cf 14 bf d6 10 02 3f
       -1.5026729 0.17640294 -0.58129543 0.5080694

qnn._weights f4 [4]
000000 96 57 c0 bf f9 a2 34 3e c7 cf 14 bf d6 10 02 3f
       -1.5026729 0.17640294 -0.58129543 0.5080694
